Actors graph has been loaded from disk
Actors features have been loaded from disk
delta T:  0:00:00.580923

Preparing test split...


Compiling autoencoder model...

Model: "model_2"
__________________________________________________________________________________________________
Layer (type)                    Output Shape         Param #     Connected to                     
==================================================================================================
data (InputLayer)               (None, 24140)        0                                            
__________________________________________________________________________________________________
drop1 (Dropout)                 (None, 24140)        0           data[0][0]                       
__________________________________________________________________________________________________
encoded1 (Dense)                (None, 256)          6180096     drop1[0][0]                      
__________________________________________________________________________________________________
mvn1 (Lambda)                   (None, 256)          0           encoded1[0][0]                   
__________________________________________________________________________________________________
encoded2 (Dense)                (None, 128)          32896       mvn1[0][0]                       
__________________________________________________________________________________________________
mvn2 (Lambda)                   (None, 128)          0           encoded2[0][0]                   
__________________________________________________________________________________________________
drop2 (Dropout)                 (None, 128)          0           mvn2[0][0]                       
__________________________________________________________________________________________________
decoded2 (DenseTied)            (None, 256)          33152       drop2[0][0]                      
__________________________________________________________________________________________________
mvn3 (Lambda)                   (None, 256)          0           decoded2[0][0]                   
__________________________________________________________________________________________________
decoded1 (DenseTied)            (None, 24140)        6204236     mvn3[0][0]                       
__________________________________________________________________________________________________
decoded_adj_logits (Lambda)     (None, 24120)        0           decoded1[0][0]                   
__________________________________________________________________________________________________
decoded_feats_logits (Lambda)   (None, 20)           0           decoded1[0][0]                   
__________________________________________________________________________________________________
decoded_adj (Activation)        (None, 24120)        0           decoded_adj_logits[0][0]         
__________________________________________________________________________________________________
decoded_feats (Softmax)         (None, 20)           0           decoded_feats_logits[0][0]       
==================================================================================================
Total params: 6,237,388
Trainable params: 6,237,388
Non-trainable params: 0
__________________________________________________________________________________________________
None

Fitting autoencoder model...


Epoch 1/50
Learning rate: 0.001000
Avg. training loss: 0.05291735
…
